…
0, copy_paste=0.0, copy_paste_mode=flip, auto_augment=randaugment, erasing=0.4, crop_fraction=1.0, cfg=None, tracker=botsort.yaml, save_dir=/content/drive/MyDrive/BootcampAI/ComputerVision/logo_detection_dir2/models/logo_detection_20250117_133805
Downloading https://ultralytics.com/assets/Arial.ttf to '/root/.config/Ultralytics/Arial.ttf'...
100%|â–ˆâ–ˆâ–ˆâ–ˆâ–ˆâ–ˆâ–ˆâ–ˆâ–ˆâ–ˆ| 755k/755k [00:00<00:00, 107MB/s]
Overriding model.yaml nc=80 with nc=1

```
               from  n    params  module                                       arguments

```

0                  -1  1       464  ultralytics.nn.modules.conv.Conv             [3, 16, 3, 2]

1                  -1  1      4672  ultralytics.nn.modules.conv.Conv             [16, 32, 3, 2]

2                  -1  1      7360  ultralytics.nn.modules.block.C2f             [32, 32, 1, True]

3                  -1  1     18560  ultralytics.nn.modules.conv.Conv             [32, 64, 3, 2]

4                  -1  2     49664  ultralytics.nn.modules.block.C2f             [64, 64, 2, True]

5                  -1  1     73984  ultralytics.nn.modules.conv.Conv             [64, 128, 3, 2]

6                  -1  2    197632  ultralytics.nn.modules.block.C2f             [128, 128, 2, True]

7                  -1  1    295424  ultralytics.nn.modules.conv.Conv             [128, 256, 3, 2]

8                  -1  1    460288  ultralytics.nn.modules.block.C2f             [256, 256, 1, True]

9                  -1  1    164608  ultralytics.nn.modules.block.SPPF            [256, 256, 5]

10                  -1  1         0  torch.nn.modules.upsampling.Upsample         [None, 2, 'nearest']

11             [-1, 6]  1         0  ultralytics.nn.modules.conv.Concat           [1]

12                  -1  1    148224  ultralytics.nn.modules.block.C2f             [384, 128, 1]

13                  -1  1         0  torch.nn.modules.upsampling.Upsample         [None, 2, 'nearest']

14             [-1, 4]  1         0  ultralytics.nn.modules.conv.Concat           [1]

15                  -1  1     37248  ultralytics.nn.modules.block.C2f             [192, 64, 1]

16                  -1  1     36992  ultralytics.nn.modules.conv.Conv             [64, 64, 3, 2]

17            [-1, 12]  1         0  ultralytics.nn.modules.conv.Concat           [1]

18                  -1  1    123648  ultralytics.nn.modules.block.C2f             [192, 128, 1]

19                  -1  1    147712  ultralytics.nn.modules.conv.Conv             [128, 128, 3, 2]

20             [-1, 9]  1         0  ultralytics.nn.modules.conv.Concat           [1]

21                  -1  1    493056  ultralytics.nn.modules.block.C2f             [384, 256, 1]

22        [15, 18, 21]  1    751507  ultralytics.nn.modules.head.Detect           [1, [64, 128, 256]]

Model summary: 225 layers, 3,011,043 parameters, 3,011,027 gradients, 8.2 GFLOPs

Transferred 319/355 items from pretrained weights
TensorBoard: Start with 'tensorboard --logdir /content/drive/MyDrive/BootcampAI/ComputerVision/logo_detection_dir2/models/logo_detection_20250117_133805', view at http://localhost:6006/
Freezing layer 'model.22.dfl.conv.weight'
AMP: running Automatic Mixed Precision (AMP) checks...
…
